app/src/main/assets/model_diabetes (1).tflite (tflite, 3352 bytes, 5 tensors)

arith.constant f4 [1, 8]
0	0x3fe3631c	1.7764621
1	0xbed2892b	-0.41120276
2	0xbf49a559	-0.78767926
3	0x3f9e3e90	1.2362843
4	0xbeaff2a3	-0.34364805
5	0x3f4acf88	0.7922292
6	0x3f37b695	0.71762973
7	0x3f01e265	0.50736076

arith.constant1 f4 [8, 16]
0	0x3edc6cb1	0.43051675
1	0xbdd46eaf	-0.10372674
2	0xbf44bc8f	-0.7685022
3	0x3e3f538f	0.18684219
4	0x3db54ce8	0.08852559
5	0x3e601d05	0.2188607
6	0xbe271b64	-0.16319042
7	0x3e4a3f05	0.19750603
8	0xbeffe7f2	-0.49981648
9	0x3f14a82d	0.58069116
10	0xbda8076d	-0.08204541
11	0x3ea1284c	0.31476057
12	0xbf42939e	-0.76006496
13	0xbe7710c5	-0.24127491
14	0xbe4cc7c6	-0.19998083
15	0xbe2dee10	-0.16985345
16	0xbf10ca9f	-0.56559175
17	0x3e312be1	0.17301895
18	0x3dee4c36	0.1163563
19	0xbc2c0181	-0.010498405
20	0xbeb4261d	-0.35185328
21	0xbe2917c5	-0.16512974
22	0x3dda8fed	0.10671983
23	0x3dd0252e	0.101633415
24	0x3ec7ee9b	0.3904923
25	0xbef48168	-0.4775498
26	0x3c5aafd4	0.013347585
27	0x3ea939dd	0.3305196
28	0x3f505c54	0.8139088
29	0xbd38d0c5	-0.045120973
30	0xbf7abfa6	-0.9794868
31	0x3c934ead	0.017981851
32	0x3d7e0f2a	0.06202618
33	0xbe3b0874	-0.18264943
34	0x3f1d9105	0.6154941
35	0x3f5434f4	0.828933
36	0xbed5af9a	-0.41735536
37	0x3b2e8ccc	0.0026634214
38	0x3f381208	0.71902514
39	0x3ef067cc	0.4695419
40	0x3d2d51a6	0.042314194
41	0xbf17fef0	-0.5937338
42	0xbea96b66	-0.3308975
43	0xbec1309a	-0.37732393
44	0x3f1d3440	0.6140785
45	0x3f041153	0.51588935
46	0xbe470a2b	-0.19437473
47	0xbf27aabe	-0.65494907
48	0xbeca805f	-0.39551064
49	0x3edda89b	0.43292698
50	0x3e0f57cd	0.13998337
51	0xbe3669d2	-0.17813805
52	0x3f1e176d	0.61754495
53	0xbcfc3ba3	-0.030790156
54	0xbe4eed28	-0.20207655
55	0x3f00dac3	0.50333804
56	0xbd6afd0a	-0.057370223
57	0x3eed60c1	0.4636288
58	0xbec4e95b	-0.38459286
59	0xbf6340cb	-0.8877074
60	0x3f08c1c4	0.5342066
61	0xbe87b3fe	-0.2650451
62	0x3f0ec083	0.557625
63	0x3f894d0f	1.0726641
64	0xbd6c721a	-0.057726003
65	0x3dde3b9c	0.10851213
66	0x3f20441b	0.6260392
67	0xbd43ebc6	-0.047832273
68	0x3df542b9	0.11975617
69	0xbeea682d	-0.45782605
70	0xbd58e881	-0.052956108
71	0x3f453088	0.7702718
72	0xbe841297	-0.25795433
73	0x3e95bd20	0.29245853
74	0x3ec8eebe	0.39244646
75	0x3de5cdac	0.112208694
76	0x3f398343	0.72465914
77	0x3e6372fd	0.22211833
78	0xbf0e096a	-0.55483115
79	0xbf177dd1	-0.59176356
80	0xbdb502be	-0.08838414
81	0xbeadadd1	-0.33921674
82	0xbefe2643	-0.49638566
83	0xbde343d1	-0.11096919
84	0x3ea48aed	0.32137242
85	0x3f15480a	0.5831305
86	0xbf05e8dd	-0.52308446
87	0xbafae9bf	-0.0019143148
88	0xbc9fa380	-0.019487143
89	0x3de924c4	0.113839656
90	0x3efc9454	0.49331915
91	0x3daf85c9	0.08570439
92	0x3e8eed57	0.2791545
93	0x3ee3cd75	0.4449269
94	0x3d4f02d6	0.050539814
95	0xbf2a1d45	-0.6645091
96	0x3f385e11	0.72018534
97	0x3e8ed553	0.27897128
98	0x3eee7b95	0.4657866
99	0xbf3f01db	-0.74612206
100	0x3f49af22	0.78782856
101	0xbef4b217	-0.47792122
102	0x3ef7c1c0	0.48390007
103	0x3d76973a	0.060202815
104	0x3dc01003	0.09378054
105	0x3eb1b1c0	0.34705925
106	0x3ec758d0	0.38934946
107	0xbe62cd7d	-0.221487
108	0x3db76b60	0.08956027
109	0xbed1c043	-0.40966997
110	0xbe982c61	-0.29721358
111	0x3f25c82e	0.64758575
112	0x3ec16c02	0.37777716
113	0xbf98113c	-1.188026
114	0xbddf8e94	-0.109158665
115	0xbe5de21c	-0.21668285
116	0x3e099365	0.13435133
117	0x3ea91241	0.3302174
118	0xbf16156e	-0.5862645
119	0x3e93ae09	0.28843716
120	0x3e4c03e6	0.19923362
121	0xbefb8e6c	-0.49132097
122	0xbf1843cc	-0.5947845
123	0x3f035200	0.51297
124	0xbe383e76	-0.17992577
125	0x3f0d5cfd	0.55220014
126	0xbeca391f	-0.39496705
127	0xbf5a1587	-0.851891

sequential_1/dense_1_2/BiasAdd/ReadVariableOp f4 [8]
0	0xbebe333b	-0.3714846
1	0x3eb33e53	0.35008487
2	0x3d9f65b2	0.07783069
3	0xbe6e6bbb	-0.23283283
4	0x3e8eb146	0.27869624
5	0xbcb79ff7	-0.022415144
6	0xbdcaa2c5	-0.09894327
7	0xbd721f8b	-0.059112113

sequential_1/dense_1/BiasAdd/ReadVariableOp f4 [16]
0	0xbc9d7842	-0.019222382
1	0x3d99207c	0.07476899
2	0x3f3c87f2	0.73644936
3	0x3f0f29d9	0.5592323
4	0x3e01d1e1	0.12677719
5	0xbd03db29	-0.03219143
6	0x3e84736d	0.25869313
7	0x3d83a8cb	0.06428679
8	0x3e639ee2	0.22228578
9	0xbc3b1b3c	-0.011420067
10	0x3e9884ce	0.29788822
11	0xbe7007e3	-0.23440509
12	0x3ed0ac8c	0.40756643
13	0x3e5ede51	0.21764494
14	0xbc9de854	-0.019275822
15	0xbe98a772	-0.2981525

sequential_1/dense_1/MatMul f4 [16, 10]
0	0x3d3f9599	0.046773527
1	0x3e982426	0.2971508
2	0x3e1575df	0.14595746
3	0x3d7e16d6	0.062033497
4	0xbe11ba4e	-0.14231226
5	0x3e092801	0.13394167
6	0xbf4fa0e5	-0.8110488
7	0x3f287fe5	0.6582015
8	0xbd1ce790	-0.038306773
9	0xbda48dbb	-0.080348454
10	0x3e0f560d	0.1399767
11	0x3f4e44d0	0.8057375
12	0x3e280d07	0.1641122
13	0x3e768fb3	0.24078254
14	0xbcae8eca	-0.021308322
15	0xbf3bb048	-0.7331586
16	0x3e9395e7	0.28825304
17	0x3e6a5eeb	0.22887771
18	0x3d6c4f17	0.057692613
19	0xbebf6bdf	-0.37386987
20	0xbe6f43e1	-0.23365737
21	0xbc8794b2	-0.016550396
22	0x3f1aa157	0.60402435
23	0xbf14714c	-0.5798538
24	0x3eefb378	0.4681661
25	0x3e27c8a9	0.1638514
26	0x3df9b10b	0.121919714
27	0xbe09253f	-0.13393115
28	0x3e003eea	0.12524
29	0xbf815a8f	-1.0105761
30	0xbf8d8c9a	-1.1058533
31	0x3db0daf0	0.08635509
32	0xbcf02df7	-0.029318793
33	0xbe8d99a9	-0.27656296
34	0xbdfdbd64	-0.12389639
35	0x3e690d08	0.22758877
36	0xbe59e08f	-0.21277069
37	0xbe5161ca	-0.2044746
38	0xbe15d8ca	-0.1463348
39	0xbf53c725	-0.82725745
40	0xbe01070d	-0.12600346
41	0x3e8ac24c	0.27101362
42	0xbea8efd6	-0.3299548
43	0xbdb5c3e7	-0.08875256
44	0x3b7b826e	0.0038377303
45	0x3f0d2067	0.5512757
46	0xbf17d78e	-0.59313285
47	0x3b2a59e2	0.0025993516
48	0x3df99a9e	0.12187694
49	0x3da70a12	0.08156218
50	0xbe093436	-0.13398823
51	0x3e3819d4	0.17978603
52	0x3f02c636	0.51083696
53	0x3e5bf290	0.21479249
54	0xbf50c853	-0.8155567
55	0x3cda84d5	0.026674667
56	0x3e5e914a	0.21735111
57	0xbe770542	-0.241231
58	0xbe42a683	-0.19008832
59	0x3f179cb1	0.5922347
60	0xbe0e6a49	-0.13907732
61	0x3e2217f5	0.15829451
62	0xbed2c7ab	-0.4116796
63	0x3f2895fb	0.6585385
64	0x3eae7381	0.34072497
65	0xbd8d9672	-0.06913461
66	0xbea6b9ca	-0.3256362
67	0x3eca20d7	0.3947818
68	0x3ef5726e	0.47938865
69	0xbea4a4c3	-0.32156953
70	0xbea03161	-0.31287673
71	0x3e478a9b	0.19486468
72	0x3e1343ed	0.1438138
73	0xbe450bae	-0.19242737
74	0x3f1f1bf5	0.62152034
75	0x3ece3db4	0.4028145
76	0x3e2c94cc	0.16853637
77	0x3e7b269a	0.24526444
78	0x3f032d65	0.5124114
79	0x3ebbf350	0.3670907
80	0xbe0cc03e	-0.1374521
81	0xbf132a85	-0.57486755
82	0x3e873075	0.26404157
83	0xbf163e25	-0.58688575
84	0x3c35fdaa	0.0111078415
85	0xbe2f7f8e	-0.17138502
86	0xbe8a24a9	-0.26981094
87	0xbdf85dde	-0.12127279
88	0x3e83319c	0.25623786
89	0x3e2ef417	0.170853
90	0x3d12d041	0.035843138
91	0x3e4c55c0	0.19954586
92	0x3ddaca7a	0.106831506
93	0xbd1450f0	-0.03621
94	0xbf533761	-0.82506377
95	0xbea1156f	-0.31461665
96	0xbf352c8a	-0.70771086
97	0xbea4a994	-0.32160628
98	0x3ec34777	0.3814046
99	0xbe856b7a	-0.2605856
100	0x3f09413f	0.5361518
101	0x3ba1445b	0.0049214787
102	0x3e73d049	0.23809923
103	0xbd6950d8	-0.056961864
104	0xbed51924	-0.41620743
105	0xbdfd42d9	-0.12366266
106	0x3f419469	0.7561708
107	0xbccf8b2d	-0.025334919
108	0x3ee2f107	0.44324514
109	0xbf09d290	-0.5383692
110	0xbe803beb	-0.25045714
111	0xbcabc01c	-0.020965628
112	0x3f122608	0.5708928
113	0xbdb4d101	-0.08828927
114	0xbefe928e	-0.49721187
115	0x3eed12cb	0.463034
116	0xbec59eb7	-0.38597652
117	0xbe85763d	-0.2606677
118	0xbef8cba7	-0.48592874
119	0x3df5c2e0	0.1200006
120	0xbf130cd8	-0.57441473
121	0x3e10ff35	0.14159854
122	0xbf6d730b	-0.92753667
123	0xbee09771	-0.4386554
124	0xbe2ab0de	-0.16669032
125	0xbf5c828f	-0.86136717
126	0xbd11c426	-0.035587452
127	0xbea38929	-0.31940582
128	0xbd08c087	-0.033386733
129	0x3ca96060	0.020675838
130	0xbf2218fc	-0.63319373
131	0xbf4f271d	-0.8091906
132	0xbe86036c	-0.26174486
133	0x3edaf310	0.42763567
134	0xbee5f76e	-0.44915336
135	0x3d9ed52d	0.07755504
136	0x3e0f5399	0.13996734
137	0xbe8634ff	-0.26212308
138	0x3e4d0d7b	0.20024674
139	0xbee20d0d	-0.44150582
140	0x3ed319d7	0.41230652
141	0x3ef186f1	0.47173265
142	0x3e58dcd6	0.21177992
143	0x3e8431ae	0.25819153
144	0x3e240686	0.16018113
145	0xbe23e9dc	-0.16007179
146	0x3dd953dc	0.10611698
147	0x3e297c9a	0.16551438
148	0xbf34472a	-0.7042109
149	0x3d407667	0.046987917
150	0x3e09177f	0.1338787
151	0x3d0b8833	0.034065437
152	0xbe9bc56e	-0.30424064
153	0x3e4f9b37	0.20274054
154	0x3fa4b837	1.2868718
155	0x3d8c2d81	0.06844617
156	0xbe110cd8	-0.14165056
157	0xbe333498	-0.17500532
158	0x3ef2aef8	0.47399116
159	0xbad361fd	-0.0016127225
